embeddings/Stable_Yogis_PDXL_Positives.safetensors (safetensors, 393368 bytes, 2 tensors)

clip_g f4 [48, 1280]
0	0xbd9ff267	-0.078099065
1	0x3caee667	0.021350099
2	0x3cc22f34	0.023704149
3	0xbc2eb19a	-0.010662461
4	0x3d80cd9a	0.062892154
5	0xbd34c734	-0.044135287
6	0x3da6db34	0.081472784
7	0x3b8e1b34	0.004336739
8	0xbd57bccc	-0.052670285
9	0xbd065f34	-0.032805637
10	0xbce2419a	-0.027619172
11	0x3cc7719a	0.024346162
12	0x3d8e359a	0.069438174
13	0xbd3d5667	-0.046224978
14	0xbbeb54cc	-0.0071817394
15	0x3d760e67	0.06007233
16	0xbd707ccc	-0.058712766
17	0xbd00499a	-0.031320192
18	0xbd0d6266	-0.03451767
19	0x3ce9ae67	0.028525544
20	0xbd1fa334	-0.038974002
21	0xbd550e67	-0.05201569
22	0x3c07d0cd	0.008289528
23	0x3db72667	0.089428715
24	0x3cdd4e67	0.027014924
25	0xbd366d9a	-0.044538118
26	0x3cd40667	0.02588196
27	0xbd93c734	-0.07215729
28	0x3bec5ccc	0.0072132107
29	0x3d4f4800	0.050605774
30	0x3db89800	0.09013367
31	0xbddad4cc	-0.10685119
32	0xbd2ac667	-0.041693117
33	0x3cdb3e67	0.026763154
34	0xbc39859a	-0.011323357
35	0xbd849e66	-0.064755246
36	0xbd6c919a	-0.057756044
37	0xbd18ef34	-0.037337497
38	0x3c401f34	0.011726189
39	0xbd1aff34	-0.037841037
40	0xbd82c334	-0.06384888
41	0xbd2be8cd	-0.041970063
42	0xbbad259a	-0.0052840235
43	0x3c6e3800	0.014539719
44	0x3d2c6ccd	0.042095948
45	0xbc037c00	-0.008025169
46	0xbd4a54cc	-0.049397275
47	0xbb1aff34	-0.0023650648
48	0xbd18ba66	-0.03728714
49	0xbc9b9d9a	-0.018996049
50	0xbdb81400	-0.0898819
51	0xbe06c8cd	-0.13162537
52	0x3cc06e67	0.023490144
53	0x3d19a800	0.037513733
54	0xbd60d000	-0.054885864
55	0x3d09fb34	0.03368683
56	0xbcd82667	-0.0263855
57	0x3d216400	0.039402008
58	0xbcc8e334	-0.024522401
59	0x3d9b9d9a	0.075984195
60	0x3cf4d19a	0.029885102
61	0x3caecc00	0.02133751
62	0xbdc26400	-0.0949173
63	0x3c10c99a	0.008837128
64	0xbd2198cd	-0.039452363
65	0x3d707ccc	0.058712766
66	0xbd128a66	-0.03577652
67	0x3ce524cc	0.027971648
68	0x3cbdc000	0.023162842
69	0x3d84ed9a	0.064906314
70	0x3dadc400	0.0848465
71	0x3dbefccd	0.09325562
72	0xbba534cd	-0.0050416947
73	0x3cf7e99a	0.030262757
74	0xbdac8734	-0.084242254
75	0xbc848400	-0.016176224
76	0x3db5659a	0.088572696
77	0xbdcb2800	-0.09919739
78	0x3d91ec00	0.071250916
79	0x3cf9c4cc	0.030489348
80	0xbdd43b34	-0.103628546
81	0x3d09fb34	0.03368683
82	0x3d87d0cd	0.066316225
83	0x3bbc199a	0.0057403566
84	0xbc844f34	-0.016151048
85	0x3d007e66	0.031370543
86	0xbd6c2800	-0.057655334
87	0x3c58f99a	0.013243103
88	0x3da68c00	0.08132172
89	0x3d3d8b34	0.046275333
90	0x3d85a666	0.065258786
91	0xbdfe4e67	-0.12417298
92	0x3d865f34	0.06561127
93	0xbde8db34	-0.11369935
94	0xbd275f34	-0.040862277
95	0xbd47db34	-0.048793033
96	0xbc9dfccd	-0.019285584
97	0xbc54a4cc	-0.012978744
98	0x3d5ad4cc	0.053425595
99	0x3cca3a67	0.024686052
100	0xbd83b0cd	-0.064302064
101	0x3d0d9734	0.034568027
102	0x3ad2af34	0.0016073943
103	0xbd07d0cd	-0.033158112
104	0xbe08d8cd	-0.13363953
105	0x3dd06a67	0.10176545
106	0xbd913334	-0.07089844
107	0xbd886f34	-0.06661835
108	0x3d2b7f34	0.041869357
109	0xbda41267	-0.080113225
110	0x3cc4599a	0.023968507
111	0xbda41267	-0.080113225
112	0xbd049e66	-0.032377623
113	0xbb992400	-0.004673481
114	0x3d47c0cc	0.04876785
115	0x3c620ccc	0.013796996
116	0x3d1b199a	0.037866212
117	0xbd3ec800	-0.046577454
118	0xbcce0b34	-0.025151826
119	0x3da17e67	0.078854375
120	0x3d06fd9a	0.032956697
121	0xb8b93667	-8.831621e-05
122	0x3cdd8334	0.027040102
123	0xbcbadccd	-0.022810364
124	0x3dbd8b34	0.092550665
125	0x3d95bccd	0.073114015
126	0xbab5cf34	-0.0013870955
127	0xbb94e99a	-0.004544449
128	0xbbbefccd	-0.005828476
129	0xbca954cd	-0.020670319
130	0xbd637e67	-0.05554047
131	0xbdb79000	-0.08963013
132	0x3d11d19a	0.035600282
133	0x3dddb800	0.10826111
134	0xbd181c00	-0.037136078
135	0xbd244734	-0.040106967
136	0xbd5e219a	-0.054231264
137	0xbda79400	-0.08182526
138	0xbd3d8b34	-0.046275333
139	0xbcc96734	-0.024585344
140	0x3d1118cd	0.035424042
141	0xbd4c999a	-0.049951173
142	0xbddfc800	-0.10926819
143	0xbb89ac00	-0.004201412
144	0x3c4f1334	0.012638856
145	0x3db79000	0.08963013
146	0xbdac6ccd	-0.084191896
147	0xbd8dcc00	-0.069236755
148	0x3d97b266	0.07407074
149	0xbcb16000	-0.021652222
150	0xbe13e19a	-0.14441529
151	0x3d5c4667	0.05377808
152	0xbd7b3667	-0.06133118
153	0xbd0b6ccd	-0.034039307
154	0x3cef0b34	0.029180147
155	0xbd918266	-0.0710495
156	0x3969799a	0.00022265912
157	0xbdbb60cd	-0.09149323
158	0xbd34accd	-0.04411011
159	0xbd31e400	-0.04343033
160	0x3db1e400	0.08686066
161	0x3d2e4800	0.042549133
162	0xbd18d4cd	-0.037312318
163	0x3d8a999a	0.067675784
164	0xbcd2af34	-0.025718309
165	0xbc792667	-0.01520691
166	0xbd53d19a	-0.051713564
167	0x3c732b34	0.014841843
168	0xbde27667	-0.1105774
169	0xbd20c59a	-0.039250948
170	0x3dc30267	0.095219426
171	0x3d8cf8cd	0.068833925
172	0xbcd71e67	-0.026259614
173	0x3d5c4667	0.05377808
174	0x3c750667	0.01495514
175	0xbdbf319a	-0.093356326
176	0xbd874ccd	-0.066064455
177	0xbbc3a0cc	-0.005970096
178	0xbcb9859a	-0.022646714
179	0xbd7b6b34	-0.061381534
180	0xbd850800	-0.064956665
181	0x3d98ba66	0.07457428
182	0xbd960c00	-0.073265076
183	0x3c4a54cc	0.012349319
184	0xbd86ae66	-0.065762326
185	0x3d9ae4cd	0.075631715
186	0xbdf3fe67	-0.11913758
187	0x3d813734	0.06309357
188	0x39d36800	0.00040322542
189	0x3c76e19a	0.015068436
190	0xbda324cd	-0.079660036
191	0x3d13accd	0.036053468
192	0x3cd22b34	0.025655366
193	0x3d89ac00	0.067222595
194	0x3b979800	0.004626274
195	0xbc592e67	-0.013255692
196	0x3cd4a4cc	0.025957488
197	0x3c5d8334	0.013520051
198	0x3c8ba19a	0.017044831
199	0xbd36d734	-0.044638827
200	0x3d88a400	0.066719055
201	0x3ccd6ccc	0.025076292
202	0x3d2ae0cd	0.041718293
203	0x3d113334	0.03544922
204	0xbc63e800	-0.013910294
205	0x3c895ccd	0.016767884
206	0xbd6d999a	-0.058007814
207	0x3c2090cd	0.009800148
208	0xbd839666	-0.064251706
209	0xbdb194cd	-0.086709596
210	0xbd0bbc00	-0.034114838
211	0xbb505000	-0.0031785965
212	0x3dc6699a	0.09688111
213	0xbcd75334	-0.026284792
214	0x3d94cf34	0.07266083
215	0xbd637e67	-0.05554047
216	0x3c6cc667	0.0144516
217	0xbc24619a	-0.010033036
218	0x3cb740cd	0.022369767
219	0x3cb848cd	0.022495652
220	0xbdc82a67	-0.097737126
221	0xb9efde67	-0.00045751335
222	0xbccce8cc	-0.02501335
223	0xbd21cd9a	-0.039502718
224	0xbd97e734	-0.07417145
225	0x3b4df0cc	0.0031424044
226	0x3d56b4cc	0.052418515
227	0x3b816c00	0.003949642
228	0xbca5699a	-0.020191956
229	0x3c9a2c00	0.018819809
230	0xbce8719a	-0.028374482
231	0xbd3f6667	-0.046728518
232	0xbd65f800	-0.056144714
233	0xbcad5a67	-0.021161271
234	0xbcefde67	-0.029280854
235	0xbc26a667	-0.010171509
236	0xbd241267	-0.040056612
237	0x3c8c8f34	0.017158128
238	0xbcd4d99a	-0.025982667
239	0xbd8f7266	-0.07004242
240	0xbc151e66	-0.009101486
241	0x3dd4a4cc	0.10382995
242	0x3d7fc000	0.062438965
243	0x3d6bbe67	0.05755463
244	0x3cca54cc	0.024698637
245	0x3dda3667	0.10654908
246	0x3d6ab667	0.05730286
247	0xbc94cf34	-0.018165208
248	0x3d832ccd	0.064050294
249	0x3d87eb34	0.06636658
250	0x3b882000	0.0041542053
251	0xbc71ee67	-0.014766312
252	0x3d9b8334	0.075933844
253	0xbd032ccd	-0.032025147
254	0x3c0ff666	0.008786773
255	0xbd93accd	-0.072106935

clip_l f4 [48, 768]
0	0x3c3f9b34	0.011694718
1	0x3baf84cd	0.0053564073
2	0xbce62ccc	-0.028097533
3	0x3db2d19a	0.087313846
4	0xbc5c4667	-0.01344452
5	0xbd0e359a	-0.034719087
6	0xbc941666	-0.018077087
7	0x3d0a999a	0.033837892
8	0x3c24cb34	0.010058213
9	0x3d599800	0.053123474
10	0xbcb5cf34	-0.022193529
11	0xbd5cb000	-0.053878784
12	0x3df46800	0.11933899
13	0x3d596334	0.053073123
14	0x3d33559a	0.043782808
15	0xbc831266	-0.015999984
16	0x3d80cd9a	0.062892154
17	0xbd1d78cd	-0.038445283
18	0x3dbc199a	0.091845706
19	0x3e011ccd	0.12608643
20	0x3d74d19a	0.059770204
21	0xbda7ae67	-0.081875615
22	0x3d1958cd	0.037438203
23	0x3c58c4cc	0.013230514
24	0xbd29a400	-0.04141617
25	0x3dc27e67	0.094967656
26	0xbdac3800	-0.08409119
27	0xbdc26400	-0.0949173
28	0xbce9ae67	-0.028525544
29	0xbd2c8734	-0.042121127
30	0x3cf67800	0.030086517
31	0xbd2fee67	-0.042951968
32	0xbbabb400	-0.0052399635
33	0xbcf50667	-0.02991028
34	0xbd00e800	-0.031471252
35	0xbe244734	-0.16042787
36	0x3d8f5800	0.069992065
37	0xbd8ca99a	-0.068682864
38	0x3dc1419a	0.09436341
39	0xbd1f1f34	-0.038848117
40	0xbd1b68cd	-0.037941743
41	0xbc95f19a	-0.018303681
42	0x3d837c00	0.064201355
43	0xbd98859a	-0.074473575
44	0xbc37759a	-0.011197472
45	0x3d09919a	0.033586122
46	0x3ca79400	0.020456314
47	0xbbdd4e67	-0.006753731
48	0xbd2f359a	-0.042775728
49	0xbc27c8cd	-0.010240746
50	0x3cda6b34	0.026662447
51	0xbb1b68cd	-0.002371359
52	0x3d949a66	0.07256012
53	0xbd679e67	-0.05654755
54	0xbcef0b34	-0.029180147
55	0xbd98ba66	-0.07457428
56	0xbca6719a	-0.020317841
57	0xbcc3a0cc	-0.023880385
58	0x3d627667	0.0552887
59	0xbda02734	-0.078199774
60	0xbdc844cc	-0.09778747
61	0xbb3320cd	-0.0027332783
62	0xbc3ead9a	-0.0116380695
63	0xbb73c99a	-0.0037199021
64	0x3d1cf4cd	0.038319398
65	0xbd6ea19a	-0.058259584
66	0x3d5c4667	0.05377808
67	0x3dba3e67	0.090939336
68	0x3ca6a667	0.020343019
69	0xbd4b919a	-0.049699403
70	0xbd90e400	-0.070747375
71	0xbcaa4267	-0.020783616
72	0xbd28eb34	-0.041239932
73	0xbbd57800	-0.0065145493
74	0xbd526000	-0.051361084
75	0x3d233f34	0.039855197
76	0xbd781e67	-0.06057587
77	0xbe183666	-0.14864501
78	0xbd2be8cd	-0.041970063
79	0xbd221ccd	-0.039578248
80	0xbd83619a	-0.064151004
81	0xbcf15000	-0.029457092
82	0x3e09919a	0.13434449
83	0xbc9cf4cd	-0.019159699
84	0x3d1bd266	0.03804245
85	0x3c21cd9a	0.009875679
86	0x3d8dcc00	0.069236755
87	0x3c8ae8cd	0.016956711
88	0xbceb899a	-0.028752137
89	0xbdf4d19a	-0.11954041
90	0xbc89fb34	-0.016843416
91	0x3aa8d0cd	0.001287961
92	0x3c481000	0.012210846
93	0xbd065f34	-0.032805637
94	0x3d5b099a	0.053475954
95	0xbb760e67	-0.0037545206
96	0x3cda3667	0.02663727
97	0x3d4f1334	0.050555423
98	0xbd94e99a	-0.072711185
99	0x3cdaa000	0.026687622
100	0xbd202734	-0.039099887
101	0x3e4a059a	0.197287
102	0xbd9f5400	-0.077796936
103	0x3cf1ee67	0.029532624
104	0xbc670000	-0.014099121
105	0xbdbda59a	-0.092601016
106	0x3cf8f19a	0.030388642
107	0xbd478c00	-0.0487175
108	0xbd2be8cd	-0.041970063
109	0x3cdc4667	0.02688904
110	0x3db91c00	0.09038544
111	0x3cef0b34	0.029180147
112	0xbd494ccc	-0.049145505
113	0xbd3848cd	-0.044991303
114	0xbd795b34	-0.060877994
115	0x3cff5667	0.03116913
116	0x3d40a334	0.047030643
117	0x3cebbe67	0.028777314
118	0xbce2ab34	-0.027669527
119	0x3ccc4a67	0.024937822
120	0x3da89c00	0.0823288
121	0x3d3848cd	0.044991303
122	0x3c4a2000	0.012336731
123	0xbc412734	-0.011789132
124	0xbcc0399a	-0.023464967
125	0xbd67d334	-0.056597903
126	0xbd1b9d9a	-0.037992097
127	0x3c9aca66	0.01889534
128	0xbd149a66	-0.03628006
129	0xbc88899a	-0.016667176
130	0x3d305800	0.043052673
131	0x3d749ccc	0.059719846
132	0x3d841a66	0.064503476
133	0x3d07eb34	0.03318329
134	0xbcf46800	-0.029834747
135	0xb880b334	-6.136895e-05
136	0x39616e67	0.000214988
137	0xbc855734	-0.016276933
138	0x3de83ccc	0.11339721
139	0x3d44a8cc	0.04801254
140	0xbbcb4267	-0.006202984
141	0xbd949a66	-0.07256012
142	0x3d6d3000	0.057907104
143	0xbd1fbd9a	-0.038999178
144	0xbcc4dd9a	-0.02403145
145	0xbda2f000	-0.079559326
146	0x3d99c266	0.07507782
147	0xbd1a60cd	-0.037689973
148	0xbd053ccd	-0.032528687
149	0xbd9d5e66	-0.07684021
150	0x3ccef8cc	0.02526512
151	0xbc3a8d9a	-0.0113862995
152	0x3d491800	0.049095154
153	0x3da0e000	0.078552246
154	0x3d8d6266	0.06903534
155	0xbd8f7266	-0.07004242
156	0xbda7e334	-0.081976324
157	0x3c919ccd	0.017774964
158	0xbc61a334	-0.013771821
159	0xbcda3667	-0.02663727
160	0x3d1748cd	0.036934663
161	0xbd2d0b34	-0.042247012
162	0x3af57000	0.0018725395
163	0x3dd3d19a	0.10342713
164	0xbd127000	-0.035751343
165	0x3d937800	0.072006226
166	0xbdd82667	-0.105542
167	0x3c9c70cd	0.019096756
168	0x3d965b34	0.07341614
169	0x3ca0c59a	0.019625474
170	0x3b902b34	0.0043996815
171	0x3cc27e67	0.023741914
172	0x3b9f6e67	0.004865456
173	0xbb135d9a	-0.002248621
174	0xbd47a667	-0.048742678
175	0xbc24cb34	-0.010058213
176	0x3d3c199a	0.045922853
177	0x3cecfb34	0.028928377
178	0xbcb6f19a	-0.022332001
179	0x3d0ed400	0.034870148
180	0xbcfde4cc	-0.030992888
181	0xbd37df34	-0.044890597
182	0x3d3c4e67	0.045973208
183	0x3d9c70cd	0.076387025
184	0xbbcb5ccc	-0.0062061306
185	0xbd3fd000	-0.046829224
186	0xbc2c1d9a	-0.010505104
187	0xbb0644cd	-0.0020487786
188	0x3dbc199a	0.091845706
189	0x3d3530cd	0.044235993
190	0xbd9430cd	-0.072358705
191	0x3c2ac667	0.010423279
192	0xbcf3c99a	-0.029759217
193	0x3c972e66	0.018454742
194	0xbd84699a	-0.064654544
195	0x3d8dcc00	0.069236755
196	0xbd61a334	-0.055087283
197	0x3cff219a	0.031143952
198	0x3c78f19a	0.015194321
199	0xbc247c00	-0.0100393295
200	0x3d0ab400	0.033863068
201	0xbc8cc400	-0.017183304
202	0x3dbbb000	0.09164429
203	0x3b5ffccc	0.0034177778
204	0x3caecc00	0.02133751
205	0xbdb9ef34	-0.090788275
206	0x3d323334	0.043505862
207	0xbcbc68cd	-0.022999192
208	0x3d578800	0.052619934
209	0x3d26719a	0.040635683
210	0xbc837c00	-0.016050339
211	0xbd22519a	-0.039628603
212	0x3b920666	0.004456329
213	0xbcccce67	-0.025000764
214	0x3d2a4267	0.041567232
215	0x3d977d9a	0.073970035
216	0xbac05400	-0.0014673471
217	0xbd57f19a	-0.052720644
218	0x3d533334	0.051562503
219	0x3ce9e334	0.028550722
220	0xbd15f19a	-0.036607362
221	0xbd9f1f34	-0.077696234
222	0xbd1d4400	-0.038394928
223	0x3cf49ccc	0.029859923
224	0xbd2dde67	-0.042448428
225	0xbd034734	-0.032050326
226	0x3d0ff666	0.035147093
227	0xbc7d119a	-0.015446091
228	0x3b9cf4cd	0.0047899247
229	0x3da3dd9a	0.080012515
230	0xbd258400	-0.040409088
231	0xbd171400	-0.036884308
232	0xbc844f34	-0.016151048
233	0xbcb530cd	-0.022117997
234	0xbd764334	-0.060122684
235	0x3bb16000	0.0054130554
236	0xbc923b34	-0.017850496
237	0x3cdec000	0.027191162
238	0x3e052266	0.13001403
239	0x3d116800	0.035499573
240	0x3d8f5800	0.069992065
241	0xbc6e3800	-0.014539719
242	0x3ce8db34	0.028424837
243	0x3ce48667	0.02789612
244	0xbcd8f99a	-0.026486207
245	0x3c582667	0.01319275
246	0x3cd13d9a	0.02554207
247	0x3e0d2d9a	0.13786927
248	0x3d349267	0.044084933
249	0xbd883a66	-0.066517636
250	0xbc4abe67	-0.012374497
251	0xbd92bf34	-0.07165375
252	0x3d972e66	0.07381897
253	0x3b221ccd	0.0024736405
254	0xbc40d800	-0.011770248
255	0xbcb89800	-0.022533417
