embeddings/Stable_Yogis_PDXL_Negatives-neg.safetensors (safetensors, 598168 bytes, 2 tensors)

clip_g f4 [73, 1280]
0	0xbbdf4ccd	-0.0068145753
1	0xbd01de67	-0.03170624
2	0xbd5bdccd	-0.05367737
3	0x3c3b8ccd	0.011447144
4	0x3d625334	0.05525513
5	0x3bb44333	0.005501175
6	0xbc57bccd	-0.013167572
7	0x3d3bf667	0.045889284
8	0xbc39599a	-0.011312867
9	0xbcd10000	-0.025512695
10	0x3c153000	0.009105682
11	0x3d5a1334	0.05324097
12	0x3c8d599a	0.01725464
13	0x3b99dccd	0.004695511
14	0xbb26a667	-0.0025428773
15	0x3aeed667	0.0018221856
16	0xbcdae667	-0.026721193
17	0x3be11667	0.0068691256
18	0x3cd2a667	0.025714112
19	0x3bca4333	0.0061725616
20	0x3cc97000	0.024589539
21	0xbc9db667	-0.019252015
22	0xbd3ca667	-0.04605713
23	0x3c355ccd	0.011069489
24	0xbbb16000	-0.0054130554
25	0xbd3a099a	-0.045419313
26	0xbc9eaccd	-0.019369507
27	0xbd09919a	-0.033586122
28	0xbbbde333	-0.0057949065
29	0xbcae1333	-0.02124939
30	0x3ca66000	0.020309448
31	0xbba8fccd	-0.0051570893
32	0xbb8f2333	-0.0043682097
33	0xbd108333	-0.03528137
34	0xbb247333	-0.0025093078
35	0xbb18e667	-0.002333069
36	0x3c32c000	0.010910034
37	0xbced5334	-0.028970338
38	0x3cfbe667	0.030749513
39	0x3b26a667	0.0025428773
40	0x3b974000	0.0046157837
41	0xbb3faccd	-0.0029247284
42	0x3cdd3ccd	0.027006531
43	0xbb866800	-0.0041017532
44	0xbb14c667	-0.0022701265
45	0xbc759334	-0.014988709
46	0xbca9f333	-0.02074585
47	0xbce72334	-0.028215028
48	0xbba1f99a	-0.004943085
49	0xbcc47ccd	-0.02398529
50	0x3ce48667	0.02789612
51	0xbbc31ccd	-0.005954361
52	0xbbf28ccd	-0.0074020387
53	0x3c401667	0.011724091
54	0xbc6a299a	-0.014292145
55	0x3cd70ccd	0.026251221
56	0xbb084333	-0.0020792007
57	0x39d1d333	0.00040020942
58	0xbb30699a	-0.0026918412
59	0xbcde5667	-0.02714081
60	0xbc485667	-0.012227631
61	0x3c2c0333	0.01049881
62	0xbccd2667	-0.025042726
63	0x3c2e3667	0.010633088
64	0xbccaf333	-0.02477417
65	0xbc70599a	-0.0146698
66	0xbd031b33	-0.03200836
67	0x3b4fe667	0.0031723024
68	0x3c8c2e67	0.01711197
69	0x3bf83000	0.0075740814
70	0xbc9dfccd	-0.019285584
71	0xbd03099a	-0.03199158
72	0xbadd3ccd	-0.0016879082
73	0xbbdd3ccd	-0.006751633
74	0x3c743334	0.014904786
75	0xbcd7e000	-0.026351929
76	0x3ca73333	0.020410156
77	0xbc8f8ccd	-0.017523194
78	0xbba8b667	-0.005148697
79	0x3b0ace67	0.0021180154
80	0x3d426ccd	0.04746704
81	0xbcd23ccd	-0.025663758
82	0xba0a7667	-0.00052819256
83	0xbb363000	-0.0027799606
84	0xbd6baccd	-0.057537843
85	0xbd1a4667	-0.037664797
86	0xbce20ccd	-0.027593995
87	0x3be2999a	0.0069152834
88	0x3d1a0000	0.037597656
89	0xbb7df667	-0.0038751604
90	0x3d10199a	0.035180666
91	0xbc1fc667	-0.009751893
92	0xb8b29ccd	-8.516908e-05
93	0xbb828e67	-0.003984261
94	0xbca26333	-0.019822692
95	0xbd1f8000	-0.03894043
96	0x3cb5c667	0.022189332
97	0xbca16ccd	-0.0197052
98	0xbd13d000	-0.036087036
99	0x3d66dccd	0.056362916
100	0x3b7cdccd	0.0038583756
101	0x3b08d000	0.002087593
102	0x3cdc8ccd	0.026922608
103	0xbca9f333	-0.02074585
104	0xbd17cccd	-0.037060548
105	0x3afec99a	0.0019438744
106	0xbc268333	-0.010163116
107	0x3b0a64cd	0.002111721
108	0xbc4fe667	-0.01268921
109	0xbd6e2667	-0.058142092
110	0x3afc7334	0.0019260407
111	0xbc221ccd	-0.009894562
112	0xbc8e099a	-0.017338563
113	0xbcdcf667	-0.026972963
114	0xbcb39333	-0.021920776
115	0x3b4ba333	0.0031072616
116	0x3c23e667	0.010003663
117	0xbd07c800	-0.03314972
118	0x3ba2cccd	0.004968262
119	0x3ce7699a	0.028248597
120	0xbcc0399a	-0.023464967
121	0x3c99b99a	0.01876526
122	0x3c552000	0.013008118
123	0x3c372667	0.011178589
124	0xbbe1399a	-0.0068733217
125	0x3c9a699a	0.018849183
126	0xbd205333	-0.039141845
127	0xbb818667	-0.0039527896
128	0xbca96667	-0.020678712
129	0xbc4b1667	-0.012395478
130	0x3c1ba667	0.009500123
131	0xbd41e000	-0.047332764
132	0xbb3e0667	-0.0028995515
133	0x3b4a2000	0.0030841827
134	0xbcb7d667	-0.022441102
135	0xbb2a5ccd	-0.0025995255
136	0x3c82f800	0.015987396
137	0xbc8dc333	-0.017304992
138	0x3c04e4cd	0.008111191
139	0xbb4f1333	-0.0031597137
140	0x3ccb8000	0.024841309
141	0xbcaa399a	-0.02077942
142	0xbc82599a	-0.015911866
143	0x3a141667	0.000564909
144	0x3c8ae000	0.016952515
145	0x3d021333	0.03175659
146	0xbc7dd334	-0.015492249
147	0xbbe23000	-0.0069026947
148	0xbadf0667	-0.0017015458
149	0xbc6ad99a	-0.014334107
150	0x3c197333	0.009365845
151	0xbc65c334	-0.014023591
152	0x3c279ccd	0.010230255
153	0xbd0f699a	-0.03501282
154	0xbca47333	-0.020074463
155	0xbcce1ccd	-0.025160218
156	0x3cad6333	0.021165466
157	0xbd30b000	-0.043136597
158	0x3d582667	0.052771
159	0x3cf8bccd	0.030363465
160	0xbd3a2ccd	-0.04545288
161	0x3c7b599a	0.015341187
162	0x3cdc0000	0.026855469
163	0xbc540667	-0.01294098
164	0xbb88e19a	-0.0041772844
165	0x3c4b8000	0.012420654
166	0xbcb2799a	-0.0217865
167	0xbbb5e99a	-0.005551529
168	0x3c047b33	0.008086014
169	0xbad98667	-0.0016595841
170	0x3c3a5000	0.011371613
171	0x3ca89333	0.020578003
172	0xbaa6a667	-0.0012714387
173	0x3bc89ccd	0.0061222077
174	0x3c89c667	0.016818238
175	0xbbe95667	-0.0071208957
176	0xbbc05ccd	-0.0058704377
177	0xbc2e1333	-0.010624695
178	0x3c4a2000	0.012336731
179	0x3ae4f000	0.0017466545
180	0x3d39599a	0.045251466
181	0xbc764334	-0.015030671
182	0x3ba8299a	0.0051319124
183	0xbc856000	-0.016281128
184	0xba99b99a	-0.0011728287
185	0x3a7d699a	0.000966692
186	0xbc693334	-0.014233399
187	0x3ce11667	0.027476503
188	0xbc21b333	-0.009869385
189	0xbd346667	-0.04404297
190	0x3be6099a	0.0070201876
191	0x3c1fe99a	0.009760285
192	0xbc4ea99a	-0.012613678
193	0xbc237ccd	-0.009978485
194	0xbc65e667	-0.014031983
195	0xba929333	-0.0011182785
196	0xbcc76000	-0.024337769
197	0xbc231333	-0.009953308
198	0x3c6c5ccd	0.014426422
199	0x3b865667	0.0040996554
200	0xbcd49334	-0.025949098
201	0xbd06d19a	-0.032914735
202	0xbc71b99a	-0.0147537235
203	0x3cad4000	0.021148682
204	0xbd080e67	-0.03321686
205	0xbb941667	-0.004519272
206	0x3b273333	0.0025512695
207	0xba71b99a	-0.0009221077
208	0xbb61a334	-0.0034429552
209	0x3c87b667	0.016566468
210	0x3c40a333	0.01175766
211	0x3bd09667	0.0063655856
212	0x3c831b33	0.01600418
213	0x3a13accd	0.00056333543
214	0x3c7dd334	0.015492249
215	0x3c589000	0.013217926
216	0xbc966ccd	-0.018362427
217	0xbca94333	-0.020661926
218	0x3cb9a000	0.022659302
219	0x3d4bc667	0.049749758
220	0xbba73333	-0.005102539
221	0x3bef1ccd	0.0072971345
222	0x3cde1000	0.027107239
223	0xbbc6f667	-0.006071854
224	0x3d181333	0.037127685
225	0xbca4099a	-0.02002411
226	0x3c2cf99a	0.0105575565
227	0xbcf9f99a	-0.030514527
228	0x3d1d9333	0.03847046
229	0xba884333	-0.0010396003
230	0x3c5b099a	0.013368988
231	0x3d0c74cd	0.034291077
232	0x3d355ccd	0.044277955
233	0xbc86f4cd	-0.016474152
234	0x395e9ccd	0.00021229983
235	0xbd51d333	-0.051226806
236	0xbd455000	-0.048171997
237	0x3c9fa333	0.019487
238	0xbc9fc667	-0.019503785
239	0x3ad5899a	0.0016291619
240	0xb8136667	-3.51429e-05
241	0xbc7d4667	-0.01545868
242	0xbbb81ccd	-0.0056186677
243	0x3cc20333	0.023683166
244	0x3cf43334	0.029809572
245	0xbbff5667	-0.0077922824
246	0xbc51b000	-0.012798309
247	0x3cdac334	0.026704408
248	0x3c27e333	0.01024704
249	0x3cd9a99a	0.02657013
250	0xbcd91ccd	-0.026502991
251	0x3c49fccd	0.012328339
252	0xbaa0e000	-0.0012273788
253	0x3c266000	0.010154724
254	0xbd56c667	-0.052435305
255	0xbafcb99a	-0.0019281388

clip_l f4 [73, 768]
0	0xbbbefccd	-0.005828476
1	0x3c393667	0.011304474
2	0xb982a000	-0.00024914742
3	0x3cb70333	0.022340393
4	0x3b0d1333	0.0021526336
5	0xbb6a7000	-0.0035772324
6	0xbc485667	-0.012227631
7	0x3c5f9334	0.013645936
8	0x3d17f000	0.037094116
9	0x3c99dccd	0.018782044
10	0x3b978667	0.0046241763
11	0xbc9a8ccd	-0.018865967
12	0x3c94c667	0.018161012
13	0xbbdc2334	-0.0067180637
14	0x3d187ccd	0.037228394
15	0xbc405ccd	-0.011740875
16	0xbc22a99a	-0.0099281315
17	0xbb874ccd	-0.0041290284
18	0x3c323333	0.010876465
19	0x3d8a1e67	0.0674408
20	0xbbabbccd	-0.0052410127
21	0x3cb3d99a	0.021954346
22	0x3cb2e333	0.021836853
23	0xbac43667	-0.0014969826
24	0x3cba7333	0.02276001
25	0xbbd35667	-0.006449509
26	0x3bc4599a	0.0059921267
27	0xbcd5accd	-0.026083374
28	0xbb0ff667	-0.0021966936
29	0xbbe23000	-0.0069026947
30	0x3bee6ccd	0.0072761537
31	0xbcf99000	-0.030464172
32	0xbc16d667	-0.009206391
33	0x3cde1000	0.027107239
34	0xbcb02333	-0.02150116
35	0xbd792667	-0.06082764
36	0xbbf20000	-0.007385254
37	0xbc5b2ccd	-0.013377381
38	0xbc4df99a	-0.012571717
39	0xb8f38334	-0.000116115814
40	0xbbfdd334	-0.0077461246
41	0x3b0c9800	0.0021452904
42	0x3c9dfccd	0.019285584
43	0xbc87fccd	-0.016600037
44	0x3c3e9333	0.011631775
45	0xbb992ccd	-0.00467453
46	0x3cd1f667	0.02563019
47	0x3cf49ccd	0.029859925
48	0xbac6d333	-0.0015169143
49	0xbcbf6667	-0.023364259
50	0xbcb0d333	-0.021585083
51	0x3c738334	0.014862824
52	0x3bece99a	0.007229996
53	0xbb4f599a	-0.00316391
54	0xbc016333	-0.007897186
55	0xbcf22334	-0.029557802
56	0x3930b000	0.00016850233
57	0xbbe0d000	-0.006860733
58	0x3b9c9ccd	0.0047794343
59	0x3aadf000	0.0013270378
60	0xbb0abccd	-0.0021169663
61	0xbacb5ccd	-0.0015515328
62	0x3b447ccd	0.0029981614
63	0xbbb0699a	-0.0053836824
64	0xbcce1ccd	-0.025160218
65	0x3c04b000	0.008098602
66	0xbc0cf000	-0.008602142
67	0x3bef4000	0.0073013306
68	0x3bb3b667	0.0054843905
69	0xbd010b33	-0.03150482
70	0x3c9d0667	0.019168092
71	0xbb0224cd	-0.001985836
72	0x3c7e199a	0.015509034
73	0x3c6b899a	0.0143760685
74	0x3c8f0000	0.017456055
75	0x3ca21ccd	0.019789124
76	0xbc9e6667	-0.019335939
77	0xbcb6e000	-0.022323608
78	0x3b913333	0.0044311523
79	0xbc141667	-0.009038544
80	0xbb4f599a	-0.00316391
81	0x3cf45667	0.029826356
82	0x3c978667	0.018496705
83	0x3cb9e667	0.022692872
84	0xbd31c99a	-0.043405153
85	0x3bfcdccd	0.007716751
86	0xbc438667	-0.0119338995
87	0xbbd4d99a	-0.0064956667
88	0x3c8f2333	0.017472839
89	0xbc983667	-0.018580629
90	0xbcbc6000	-0.022994995
91	0x3cf07ccd	0.029356385
92	0xbc52199a	-0.012823487
93	0xbbd18ccd	-0.0063949586
94	0x3c556667	0.013024903
95	0xbc84d333	-0.016213989
96	0xbd6a7000	-0.057235718
97	0x3c080e67	0.008304215
98	0x3c826b33	0.015920257
99	0xbcae7ccd	-0.021299744
100	0xbb0f2333	-0.0021841049
101	0xbd0f8ccd	-0.035046387
102	0x3b5ffccd	0.003417778
103	0x3c9d0667	0.019168092
104	0xbaff3334	-0.0019470216
105	0x3baae99a	0.0052158358
106	0xbc05eccd	-0.0081741335
107	0xbbf7399a	-0.0075447084
108	0x3cb7d667	0.022441102
109	0x3aead99a	0.0017917634
110	0x3c722334	0.014778901
111	0xbbeff000	-0.0073223114
112	0x3c9e899a	0.019352723
113	0x3d1c5667	0.038168337
114	0x3b9ed000	0.004846573
115	0x3bc6b000	0.0060634613
116	0xbc764334	-0.015030671
117	0xbbae1333	-0.0053123473
118	0xb953e334	-0.00020207168
119	0xb9e06667	-0.00042800905
120	0xbc8bf99a	-0.017086793
121	0x3c9ed000	0.019386292
122	0x3cafb99a	0.021450806
123	0x3c174000	0.009231567
124	0xbc10c99a	-0.008837128
125	0xba7d2334	-0.000965643
126	0xbc103ccd	-0.008803559
127	0x3c50dccd	0.0127479555
128	0xbbde9ccd	-0.0067935945
129	0x38b3299a	8.543134e-05
130	0x3cd75334	0.026284792
131	0x3cc05ccd	0.02348175
132	0x3c8bd667	0.017070008
133	0xbd1d299a	-0.038369752
134	0xba06799a	-0.00051298144
135	0xbcad1ccd	-0.021131897
136	0xbcb34ccd	-0.021887207
137	0xbd0ace67	-0.033888247
138	0xbd4ad000	-0.04951477
139	0x3cf1b99a	0.029507447
140	0x3bcbe99a	0.006222916
141	0xbcdd8334	-0.027040102
142	0x3ce8a667	0.02839966
143	0x3c9d7000	0.019218445
144	0x3af64334	0.0018788339
145	0x3c0f0000	0.008728027
146	0x3ca3599a	0.019940186
147	0xbcc4c333	-0.02401886
148	0x3ca50000	0.020141602
149	0x3cf19667	0.029490663
150	0xbc0b2667	-0.008493043
151	0x3d006ccd	0.03135376
152	0xbc8b0333	-0.016969299
153	0xb8962667	-7.1597104e-05
154	0xbbb2c000	-0.005455017
155	0xbc6a4ccd	-0.014300537
156	0xbc3d9ccd	-0.011573029
157	0x3c852b33	0.01625595
158	0xbc868b33	-0.016423797
159	0xbca63ccd	-0.020292664
160	0x3cc3a99a	0.023884583
161	0x377d0000	1.5079975e-05
162	0x3b9e4333	0.004829788
163	0xbc8ff667	-0.017573548
164	0xbb47c99a	-0.0030485154
165	0xbbb44333	-0.005501175
166	0xba41999a	-0.0007385254
167	0xbca05333	-0.019570922
168	0x3b84c19a	0.0040513994
169	0xbc672334	-0.014107514
170	0x3b25f667	0.002532387
171	0xbc749ccd	-0.014929962
172	0xbc9b3ccd	-0.01894989
173	0xbbf2d334	-0.0074104313
174	0xbcff1000	-0.03113556
175	0xbccce000	-0.025009155
176	0xbca89333	-0.020578003
177	0xbd279ccd	-0.04092102
178	0xbcbe0667	-0.023196412
179	0x3c945ccd	0.018110657
180	0x3c3f4333	0.011673736
181	0xbb754ccd	-0.003742981
182	0xb91b3ccd	-0.00014804602
183	0xbc200ccd	-0.009768677
184	0x3bb2e333	0.005459213
185	0x3cc89ccd	0.024488831
186	0x3c9f5ccd	0.01945343
187	0xbaff9ccd	-0.0019501686
188	0x3b6ab667	0.0035814287
189	0xbbbca667	-0.0057571414
190	0xbca96667	-0.020678712
191	0xbc26c99a	-0.0101799015
192	0xbbcc0ccd	-0.006227112
193	0xbc26199a	-0.01013794
194	0x3cb34ccd	0.021887207
195	0x3d200ccd	0.039074708
196	0x3c49fccd	0.012328339
197	0xbc321000	-0.0108680725
198	0x3c86f4cd	0.016474152
199	0x3c2a1667	0.010381318
200	0x3c657ccd	0.014006806
201	0xbbebf334	-0.007200623
202	0xbc1f5ccd	-0.009726715
203	0x3c884333	0.016633606
204	0x3c07a4cd	0.008279038
205	0x3c61e99a	0.013788605
206	0x3bd0099a	0.006348801
207	0x3c7a8667	0.015290833
208	0x3c796ccd	0.015223694
209	0x3d06c000	0.03289795
210	0x3bd54334	0.0065082554
211	0x3c174000	0.009231567
212	0xbc1c799a	-0.009550476
213	0xbb4c7667	-0.0031198503
214	0xbd30b000	-0.043136597
215	0xbb8bb333	-0.0042633056
216	0x3c662ccd	0.014048767
217	0x3cd6c667	0.026217652
218	0xbb594000	-0.003314972
219	0xbb95999a	-0.00456543
220	0x3cc0e99a	0.02354889
221	0xba5c4667	-0.0008402825
222	0xbd132000	-0.03591919
223	0xba2a8000	-0.0006504059
224	0xbcbe299a	-0.023213197
225	0xbcb0d333	-0.021585083
226	0xbae36ccd	-0.0017351151
227	0xbc8854cd	-0.016641999
228	0xbbd09667	-0.0063655856
229	0x3bfba000	0.0076789856
230	0x3ca6eccd	0.020376587
231	0xbba37ccd	-0.0049892426
232	0xbac52ccd	-0.0015043259
233	0x3b047b33	0.0020215034
234	0xba21b333	-0.00061683654
235	0xbbf3199a	-0.0074188234
236	0x3b2da99a	0.0026498795
237	0xbb52c99a	-0.003216362
238	0xbcbf6667	-0.023364259
239	0x3b372667	0.0027946474
240	0xbccd2667	-0.025042726
241	0x3b033e67	0.0020026208
242	0xbc68199a	-0.01416626
243	0x3c52eccd	0.0128738405
244	0x3b800333	0.0039066314
245	0x3b74c000	0.0037345886
246	0x39e6099a	0.00043876172
247	0xbc252333	-0.010079193
248	0x3cab0ccd	0.020880127
249	0xbc6a299a	-0.014292145
250	0x3c5b7334	0.013394166
251	0xbc037333	-0.008023071
252	0xbcc64667	-0.024203492
253	0x3c903ccd	0.017607117
254	0x3cb42000	0.021987915
255	0x3b8b7e67	0.0042570117
